Using Model M3=alexnet
Model: "sequential_1"
_________________________________________________________________
Layer (type)                 Output Shape              Param #   
=================================================================
conv1d_1 (Conv1D)            (None, 16000, 96)         384       
_________________________________________________________________
batch_normalization_1 (Batch (None, 16000, 96)         384       
_________________________________________________________________
activation_1 (Activation)    (None, 16000, 96)         0         
_________________________________________________________________
max_pooling1d_1 (MaxPooling1 (None, 8000, 96)          0         
_________________________________________________________________
dropout_1 (Dropout)          (None, 8000, 96)          0         
_________________________________________________________________
conv1d_2 (Conv1D)            (None, 4000, 256)         73984     
_________________________________________________________________
batch_normalization_2 (Batch (None, 4000, 256)         1024      
_________________________________________________________________
activation_2 (Activation)    (None, 4000, 256)         0         
_________________________________________________________________
max_pooling1d_2 (MaxPooling1 (None, 1000, 256)         0         
_________________________________________________________________
dropout_2 (Dropout)          (None, 1000, 256)         0         
_________________________________________________________________
conv1d_3 (Conv1D)            (None, 1000, 384)         295296    
_________________________________________________________________
batch_normalization_3 (Batch (None, 1000, 384)         1536      
_________________________________________________________________
activation_3 (Activation)    (None, 1000, 384)         0         
_________________________________________________________________
max_pooling1d_3 (MaxPooling1 (None, 250, 384)          0         
_________________________________________________________________
dropout_3 (Dropout)          (None, 250, 384)          0         
_________________________________________________________________
conv1d_4 (Conv1D)            (None, 250, 384)          442752    
_________________________________________________________________
batch_normalization_4 (Batch (None, 250, 384)          1536      
_________________________________________________________________
activation_4 (Activation)    (None, 250, 384)          0         
_________________________________________________________________
max_pooling1d_4 (MaxPooling1 (None, 62, 384)           0         
_________________________________________________________________
dropout_4 (Dropout)          (None, 62, 384)           0         
_________________________________________________________________
conv1d_5 (Conv1D)            (None, 62, 256)           295168    
_________________________________________________________________
batch_normalization_5 (Batch (None, 62, 256)           1024      
_________________________________________________________________
activation_5 (Activation)    (None, 62, 256)           0         
_________________________________________________________________
max_pooling1d_5 (MaxPooling1 (None, 15, 256)           0         
_________________________________________________________________
dropout_5 (Dropout)          (None, 15, 256)           0         
_________________________________________________________________
flatten_1 (Flatten)          (None, 3840)              0         
_________________________________________________________________
dense_1 (Dense)              (None, 4096)              15732736  
_________________________________________________________________
dense_2 (Dense)              (None, 4096)              16781312  
_________________________________________________________________
dense_3 (Dense)              (None, 7)                 28679     
=================================================================
Total params: 33,655,815
Trainable params: 33,653,063
Non-trainable params: 2,752
_________________________________________________________________
None
training files = 6289
testing files = 725
Train on 6289 samples, validate on 725 samples
Epoch 1/5
 - 18s - loss: 3.1044 - accuracy: 0.4433 - val_loss: 2.9112 - val_accuracy: 0.2207
…
