…
2025-03-02 16:12:46.830323: I tensorflow/stream_executor/cuda/cuda_gpu_executor.cc:1006] successful NUMA node read from SysFS had negative value (-1), but there must be at least one NUMA node, so returning NUMA node zero
2025-03-02 16:12:46.831353: I tensorflow/core/common_runtime/gpu/gpu_device.cc:1304] Created TensorFlow device (/job:localhost/replica:0/task:0/device:GPU:0 with 20400 MB memory) -> physical GPU (device: 0, name: NVIDIA GeForce RTX 2080 Ti, pci bus id: 0000:01:00.0, compute capability: 7.5)
Model: "sequential_1"
_________________________________________________________________
Layer (type)                 Output Shape              Param #
=================================================================
conv1d_1 (Conv1D)            (None, 16000, 96)         384
_________________________________________________________________
batch_normalization_1 (Batch (None, 16000, 96)         384
_________________________________________________________________
activation_1 (Activation)    (None, 16000, 96)         0
_________________________________________________________________
dropout_1 (Dropout)          (None, 16000, 96)         0
_________________________________________________________________
conv1d_2 (Conv1D)            (None, 16000, 96)         27744
_________________________________________________________________
batch_normalization_2 (Batch (None, 16000, 96)         384
_________________________________________________________________
activation_2 (Activation)    (None, 16000, 96)         0
_________________________________________________________________
max_pooling1d_1 (MaxPooling1 (None, 4000, 96)          0
_________________________________________________________________
dropout_2 (Dropout)          (None, 4000, 96)          0
_________________________________________________________________
conv1d_3 (Conv1D)            (None, 4000, 192)         55488
_________________________________________________________________
batch_normalization_3 (Batch (None, 4000, 192)         768
_________________________________________________________________
activation_3 (Activation)    (None, 4000, 192)         0
_________________________________________________________________
dropout_3 (Dropout)          (None, 4000, 192)         0
_________________________________________________________________
conv1d_4 (Conv1D)            (None, 4000, 192)         110784
_________________________________________________________________
batch_normalization_4 (Batch (None, 4000, 192)         768
_________________________________________________________________
activation_4 (Activation)    (None, 4000, 192)         0
_________________________________________________________________
max_pooling1d_2 (MaxPooling1 (None, 1000, 192)         0
_________________________________________________________________
dropout_4 (Dropout)          (None, 1000, 192)         0
_________________________________________________________________
conv1d_5 (Conv1D)            (None, 1000, 384)         221568
_________________________________________________________________
batch_normalization_5 (Batch (None, 1000, 384)         1536
_________________________________________________________________
activation_5 (Activation)    (None, 1000, 384)         0
_________________________________________________________________
dropout_5 (Dropout)          (None, 1000, 384)         0
_________________________________________________________________
conv1d_6 (Conv1D)            (None, 1000, 384)         442752
_________________________________________________________________
batch_normalization_6 (Batch (None, 1000, 384)         1536
_________________________________________________________________
activation_6 (Activation)    (None, 1000, 384)         0
_________________________________________________________________
max_pooling1d_3 (MaxPooling1 (None, 250, 384)          0
_________________________________________________________________
dropout_6 (Dropout)          (None, 250, 384)          0
_________________________________________________________________
conv1d_7 (Conv1D)            (None, 250, 256)          295168
_________________________________________________________________
batch_normalization_7 (Batch (None, 250, 256)          1024
_________________________________________________________________
activation_7 (Activation)    (None, 250, 256)          0
_________________________________________________________________
dropout_7 (Dropout)          (None, 250, 256)          0
_________________________________________________________________
conv1d_8 (Conv1D)            (None, 250, 256)          196864
_________________________________________________________________
batch_normalization_8 (Batch (None, 250, 256)          1024
_________________________________________________________________
activation_8 (Activation)    (None, 250, 256)          0
_________________________________________________________________
dropout_8 (Dropout)          (None, 250, 256)          0
_________________________________________________________________
conv1d_9 (Conv1D)            (None, 250, 256)          196864
_________________________________________________________________
batch_normalization_9 (Batch (None, 250, 256)          1024
_________________________________________________________________
activation_9 (Activation)    (None, 250, 256)          0
_________________________________________________________________
max_pooling1d_4 (MaxPooling1 (None, 62, 256)           0
_________________________________________________________________
dropout_9 (Dropout)          (None, 62, 256)           0
_________________________________________________________________
conv1d_10 (Conv1D)           (None, 62, 512)           393728
_________________________________________________________________
batch_normalization_10 (Batc (None, 62, 512)           2048
_________________________________________________________________
activation_10 (Activation)   (None, 62, 512)           0
_________________________________________________________________
dropout_10 (Dropout)         (None, 62, 512)           0
_________________________________________________________________
conv1d_11 (Conv1D)           (None, 62, 512)           786944
_________________________________________________________________
batch_normalization_11 (Batc (None, 62, 512)           2048
_________________________________________________________________
activation_11 (Activation)   (None, 62, 512)           0
_________________________________________________________________
dropout_11 (Dropout)         (None, 62, 512)           0
_________________________________________________________________
conv1d_12 (Conv1D)           (None, 62, 512)           786944
_________________________________________________________________
batch_normalization_12 (Batc (None, 62, 512)           2048
_________________________________________________________________
activation_12 (Activation)   (None, 62, 512)           0
_________________________________________________________________
max_pooling1d_5 (MaxPooling1 (None, 15, 512)           0
_________________________________________________________________
dropout_12 (Dropout)         (None, 15, 512)           0
_________________________________________________________________
lambda_1 (Lambda)            (None, 512)               0
_________________________________________________________________
dense_1 (Dense)              (None, 7)                 3591
=================================================================
Total params: 3,533,415
Trainable params: 3,526,119
Non-trainable params: 7,296
_________________________________________________________________
None
training files = 6289
testing files = 725
Train on 6289 samples, validate on 725 samples
Epoch 1/5
2025-03-02 16:12:53.669618: I tensorflow/stream_executor/platform/default/dso_loader.cc:44] Successfully opened dynamic library libcublas.so.10.0
…
